data/run_001/calib/CameraParams_realsense.npz (npz, 16972 bytes, 7 tensors)

rms f8 []
0	0x3fc8ada608160b8f	0.19279933352308062

K f8 [3, 3]
0	0x408cb97c1862cac6	919.1855933874256
1	0x0000000000000000	0.0
2	0x40844c6fcf00b636	649.55459404522
3	0x0000000000000000	0.0
4	0x408cc73c81128adc	920.9045430611254
5	0x4076d8b700c4a5b2	365.5446784669431
6	0x0000000000000000	0.0
7	0x0000000000000000	0.0
8	0x3ff0000000000000	1.0

dist f8 [1, 5]
0	0x3fbc95b8c8e5fc5b	0.11165957360025074
1	0x3f80a49011882d2a	0.008126378569633792
2	0x3f486872da58f492	0.0007448731236717901
3	0xbf5a3259d25518ff	-0.0015989186443490786
4	0xbfe94772b98f07e5	-0.7899716972535741

rvecs f8 [98, 3, 1]
0	0x3fc50b865a27bce8	0.1644142093859735
1	0xbfbda40f9b0987b4	-0.11578462157333896
2	0xbff804ec9d732736	-1.5012022161849479
3	0x3fc29e4f8af4425d	0.14545625958318711
4	0xbfc0990d252dbba9	-0.12967075648654472
5	0xbff80d5041534334	-1.503250365425811
6	0x3fbf345a7ace3688	0.12189260004216795
7	0xbfc1ad1f98c9f213	-0.13809580765145366
8	0xbff814c87619da0b	-1.5050739873237287
9	0x3fb9a61a3032b045	0.10019076992711103
10	0xbfc19fa4c872229c	-0.1376844385852295
11	0xbff81886756e65f9	-1.5059876048238705
12	0x3fb365325e9c4d80	0.07576288995578828
13	0xbfc0df6b86784864	-0.13181823793326253
14	0xbff81bcad1a797f2	-1.5067852201113934
15	0x3face8e0d0fe6de6	0.05646421958155283
16	0xbfbe5da7ce324da3	-0.11861656936735314
17	0xbff81bafee6e77b3	-1.506759578106977
18	0x3fa59e91d95a446c	0.042225415975857356
19	0xbfb97654e92ac75a	-0.09946184818798312
20	0xbff819b560ce32db	-1.5062764913047235
21	0x3fa22bf9ce441aff	0.03549175875564536
22	0xbfb3d185edd2f295	-0.07741581970453588
23	0xbff81759099c91e3	-1.5057001471951643
24	0x3fa196125ec26002	0.03434808165292226
25	0xbfaba7aba0fd879d	-0.054013598825590516
26	0xbff81601dc291f0d	-1.5053728675865756
27	0x3fa5a3ebb4eaf584	0.04226624091595979
28	0xbfa03d0a93d048fb	-0.031715708297399524
29	0xbff813b6f4217ad6	-1.5048131500586144
30	0x3faccbb1308c9743	0.056241547752775144
31	0xbf878727b3512c72	-0.01148825660688699
32	0xbff8127a1b076ee7	-1.504510980207607
33	0x3fb2a85a85116ebd	0.07288137196286022
34	0x3f68b17d7ae3051f	0.0030143214017647325
35	0xbff8113c62e0156a	-1.5042079794232799
36	0x3fb952afe78d242c	0.09891795542820664
37	0x3f87beba675ab1bb	0.011594253806230683
38	0xbff80bcd7d407fd4	-1.5028815167097394
39	0x3fbed478a2cd76bc	0.12042955374405556
40	0x3f876138f1fde507	0.011415905842783859
41	0xbff807a28100ab93	-1.5018639601864592
42	0x3fc260c4a8672267	0.14357813093944857
43	0x3f71a6e5705479df	0.004309555287618199
44	0xbff8024e4622e75d	-1.5005629291249172
45	0x3fc4e396ed272a5d	0.1631954820607743
46	0xbf82d8be910ca050	-0.009202469636491767
47	0xbff7fc526b140c1b	-1.4991020376917337
48	0x3fc6a4a69a6ccf17	0.176899743464326
49	0xbf9b30dc7d6ec505	-0.026553578525356353
50	0xbff7f8c8260d06f3	-1.4982377516138825
51	0x3fc7986c54199653	0.18433908564036247
52	0xbfa96d690cd86aad	-0.04966285974315574
53	0xbff7f81e2e26f5e5	-1.4980756571597962
54	0x3fc785dc3bfb957e	0.18377259186597067
55	0xbfb30b65ec463fbf	-0.07439267176073282
56	0xbff7fa18674fbc89	-1.4985584292988128
57	0x3fc6af8facffe2e5	0.17723270365947666
58	0xbfb8a9e9cc38edab	-0.09634267078302254
59	0xbff7fe6e802aafe3	-1.4996171003831413
60	0x3fcf22b278e634fb	0.24324637320788853
61	0xbfcf49cffa32b7bd	-0.24444007603363885
62	0xbff7f8c55302ac69	-1.498235058078331
63	0x3fc6fd3bcaa4ebe7	0.17960307497727898
64	0xbfd1be9505e9f96e	-0.2772572095635927
65	0xbff81f1a626e838f	-1.5075935215938647
66	0x3fbb903486b02240	0.10766914642602732
67	0xbfd29699de052b94	-0.2904419582525233
68	0xbff8370577687e61	-1.5134329475767105
69	0x3fa35bfab7d4bd5a	0.03781112188368736
70	0xbfd1f3b8dddc743f	-0.28050061861160097
71	0xbff83b8969d43c30	-1.5145353445002563
72	0xbf9a8b3fa881fa98	-0.025921816501517897
73	0xbfcff99c93427fb5	-0.24980504217546487
74	0xbff82f1c35bf79fc	-1.511501512482595
75	0xbfb35a7b24fd7a01	-0.07559938099937115
76	0xbfc9c994237ca74b	-0.20146419270286695
77	0xbff81a52b6a3ceb0	-1.5064265379304906
78	0xbfbb7df3f2f7aeb7	-0.10739063913177459
79	0xbfc1a3373127d741	-0.13779344463517343
80	0xbff80545197da78c	-1.5012866016136028
81	0xbfbe37c90f77b4f9	-0.11803871753336982
82	0xbfb1dab015fa3cbb	-0.06974316155013842
83	0xbff7f84f2d4eadbd	-1.4981223840539848
84	0xbfbb9315888e4cbf	-0.10771307548411622
85	0x3f6021cca76d7f62	0.0019692418240281765
86	0xbff7f900d64d60c0	-1.498291813963121
87	0xbfb33efa61820ea0	-0.07517971878592755
88	0x3fb1275ac9b0a220	0.06700675415107371
89	0xbff802cbf0cc285b	-1.5006827741767867
90	0xbf99cf3c710570c3	-0.02520460548235871
91	0x3fbe4daa41b4baf4	0.11837257484578939
92	0xbff80f8eecbb6091	-1.5037984130231374
93	0x3fa3b2a7e79e6872	0.0384724111783762
94	0x3fc3778f0d8518e8	0.15208614502098006
95	0xbff81627709fdfe2	-1.505408706607334
96	0x3fbbe835447ad523	0.10901196405287243
97	0x3fc4faaf49655502	0.1639002903345173
98	0xbff80ef8aa84f08b	-1.5036551152143456
99	0x3fc6d4d249d3f955	0.178369794892158
100	0x3fc3a706e8571bcc	0.15353475899448055
101	0xbff7f9836586ee68	-1.4984163251782778
102	0x3fceea2eaca03b96	0.24152167729377244
103	0x3fbf71c645582bc7	0.1228298110292335
104	0xbff7d993fec67007	-1.4906196548608948
105	0x3fd2972f64c83f2b	0.29047760812771867
106	0x3fb2c5ef483efc43	0.07333274377650505
107	0xbff7b96078883172	-1.482758017376082
108	0x3fd4a6d721e36a01	0.3226831274929794
109	0x3f86d591536eb9f6	0.01114953552118168
110	0xbff7a2f21b41eb51	-1.477281671976659
111	0x3fd558ef951998b8	0.3335532146505886
112	0xbfae9bbcdf037096	-0.05978193495113364
113	0xbff79eaf079d537d	-1.4762411401217996
114	0x3fd4c7b1758ffa58	0.3246883056707808
115	0xbfc07c6928f43e70	-0.12879671573363138
116	0xbff7ae2fc0f00421	-1.4800260101913028
117	0x3fd2be180897bd40	0.29285240973600324
118	0xbfc878cf2f0ac8a5	-0.19118680760363307
119	0xbff7cfe28a3cf47f	-1.488253154747582
120	0x3fd803156042f09f	0.37518820190940433
121	0xbfd4e66cb11c0bc2	-0.32656400009016917
122	0xbff7aebd21a8a35d	-1.4801608385843885
123	0x3fd1cd1d9232a37c	0.27814425732736203
124	0xbfd992c6e8f96e47	-0.3995835566654233
125	0xbff811c109d4c151	-1.5043344863916739
126	0x3fc4fac3f5b2654f	0.16390275475422775
127	0xbfdc083519ada429	-0.43800094134945994
128	0xbff857b7c16a4322	-1.521415477302249
129	0x3fa5cd580c09036f	0.042582274884359055
130	0xbfdc06919e34c7ca	-0.4379009289724506
131	0xbff86db88b16909e	-1.526787322342933
132	0xbfb157812ba9188c	-0.06774146381312302
133	0xbfd9c5c14824384e	-0.40269500775400935
134	0xbff8524acde37aa0	-1.5200908701441804
135	0xbfc4cbac1a9c248a	-0.16246558474839318
136	0xbfd57502053708a8	-0.3352665949752329
137	0xbff818c9708bb8c1	-1.5060514828033293
138	0xbfcd63c4ef68733d	-0.22960721673816833
139	0xbfcf119ab4df6055	-0.24272474128406665
140	0xbff7d723889b144c	-1.4900241218722554
141	0xbfd0ffe33941befa	-0.26561813918577537
142	0xbfc0dc9bb7a8ee7a	-0.13173243015068065
143	0xbff7a88d42b7050e	-1.4786503416110608
144	0xbfd11203b0b8e43c	-0.26672451265364194
145	0xbf8d19ffb2d81aca	-0.014209745068922603
146	0xbff79cd9bc4f8214	-1.4757935863382317
147	0xbfcd92096c1ab316	-0.2310191896298412
148	0x3fba0dd2121ce9e5	0.10177338545046373
149	0xbff7b825ca314739	-1.4824579141754397
150	0xbfc480cfa15b0ddf	-0.16018100146003086
151	0x3fc9d03c0b6d4e22	0.20166731412847222
152	0xbff7eac198d27bc2	-1.4948135347001288
153	0xbfafc8c0f2e90b8f	-0.062078504230632985
154	0x3fd19f65e19ce236	0.2753538802385579
155	0xbff81a21a772cfa8	-1.5063797512966435
156	0x3faa3885e64479ea	0.051212486609290966
157	0x3fd407b89b40334f	0.31297125970086354
158	0xbff82c60cd54d9f4	-1.5108345051536363
159	0x3fc5c860a2a93997	0.17017753546174383
160	0x3fd40d5dc6549f2a	0.3133158146688283
161	0xbff8123428392db1	-1.5044442721581215
162	0x3fd1f3299db71228	0.2804664650141455
163	0x3fd1b5545af7ce62	0.2766924751624399
164	0xbff7d23f1e6c873d	-1.4888297260699368
165	0x3fd7ccbb88fa85e1	0.3718708837205594
166	0x3fcaa53f215f1f44	0.20816792611571533
167	0xbff77fed1f6d8ba0	-1.468731997266083
168	0x3fdc1eb2eac9e6ca	0.439373711858576
169	0x3fbd832cce67c1b8	0.11528282202903639
170	0xbff734cc3df56bd1	-1.450390092874603
171	0x3fde88d958a849b3	0.4771026006502794
172	0x3f7b5de43bb18890	0.006681338821268437
173	0xbff709001b2f21c9	-1.4396973668936985
174	0x3fdeae19fe270de3	0.47937631434999
175	0xbfbcaada734c4716	-0.1119820147980842
176	0xbff71057e1a5d8a5	-1.4414900602692253
177	0x3fdc7fd738dcfd73	0.4453027777962781
178	0xbfcd07885024a95c	-0.22679237282984388
179	0xbff74d1d017f9eae	-1.4563264902625792
180	0x3fdab64e876ba5bc	0.41737712120683645
181	0xbfdf8d94c21da67b	-0.4930164237654037
182	0xbff7c1f8902da5ce	-1.4848561889615328
183	0x3fd0c63c0590c8d3	0.2620992712355818
184	0xbfe254a4757dda13	-0.5728323263891205
185	0xbff8641bb8bf77cc	-1.5244404999461834
186	0x3fb7d071c070ac66	0.09302435825581909
187	0xbfe310aa6dd1358c	-0.5957843918674128
188	0xbff8af1387ba92ae	-1.542743234816196
189	0xbfb1de15e00b59a9	-0.06979500503380244
190	0xbfe2241dedd1e6f3	-0.5669088025017274
191	0xbff8979cea54e548	-1.5370148805216832
192	0xbfcb1c2c2175b948	-0.21179725297720098
193	0xbfdf93768bfb5fb8	-0.4933754317294148
194	0xbff83512d9fa20ec	-1.5129574312905403
195	0xbfd4911b766fddb7	-0.32135664526091595
196	0xbfd885051682609c	-0.3831188888375523
197	0xbff7b201e5d0ac76	-1.4809588410523964
198	0xbfd9277d89d3c2bb	-0.39303530177771123
199	0xbfcf209731e52cc1	-0.24318208633699182
200	0xbff73ec9224e9aaf	-1.45282853509131
201	0xbfdafd83416c26fc	-0.42172318829453537
202	0xbfb58781144248fb	-0.08409888023951233
203	0xbff703070e262c82	-1.4382391503047818
204	0xbfd99af0af0f1e0c	-0.4000817975579316
205	0x3fb5115cd41b8adf	0.08229618242652802
206	0xbff71983ae1ad344	-1.44372909555132
207	0xbfd4d7653d6762fb	-0.3256466960570347
208	0x3fcec81802ebfa9d	0.24048137800851502
209	0xbff777f93f777282	-1.4667904357112609
210	0xbfc9ef661b98a5f7	-0.20261837336992958
211	0x3fd79705e298fbdc	0.3685927117220993
212	0xbff7f278cece2e6c	-1.4966972425781035
213	0xbfa802ee2b56e6f1	-0.04689735678716812
214	0x3fdcc0194a4e4259	0.44922477966705326
215	0xbff8474a94f074e1	-1.5174051111164817
216	0x3fbe9f46784cf76f	0.11961784779574967
217	0x3fde5029ca757c07	0.4736427762163093
218	0xbff84b0285b024cf	-1.518312952250472
219	0x3fd1e03a9dc0a6f6	0.2793108501960967
220	0x3fdc7091c142a997	0.44437068818174325
221	0xbff7f9a5f4190add	-1.4984492812224552
222	0x3fdab45c5ceff37d	0.4172583491888913
223	0x3fd797a3004f57b2	0.3686301711107901
224	0xbff76f364cbb0c8d	-1.4646513936320702
225	0x3fe0d773d6948b2a	0.5263003531475523
226	0x3fd07558d3934761	0.2571622911610714
227	0xbff6d587b5780aeb	-1.4271313751821093
228	0x3fe326301b6fca57	0.5984116111633949
229	0x3fbe0be04d6f5605	0.11736871614933626
230	0xbff65d76365dc466	-1.3978178142245041
231	0x3fe41aba94536a35	0.6282627961148309
232	0xbfa55a0b9ce0e976	-0.041702616596427086
233	0xbff62f2db9681854	-1.3865182154127256
234	0x3fe3834bf87ab689	0.609777436553217
235	0xbfcab1bd722392e7	-0.20854919503394528
236	0xbff667709794cea3	-1.400253860582702
237	0x3fe13788f148f3f9	0.5380291664692997
238	0xbfd7617d89593079	-0.36532534039429937
239	0xbff6fef277825c08	-1.4372429531410962
240	0x3fe2e6a06ee87c58	0.5906526724028351
241	0xbfe151a482ed25b4	-0.5412161404757883
242	0xbff6fb9195642c1a	-1.4364181361768318
243	0x3fd9cd1bc5a2c3e6	0.4031438283955694
244	0xbfe5d07f5f5c3c95	-0.6817013609414909
245	0xbff832618b2765ad	-1.5123000560473472
246	0x3fc7acfb9cac6e14	0.1849665179259864
247	0xbfe7f0e65f8ec585	-0.7481567255364757
248	0xbff8ebc9c8c373d8	-1.5575654833148658
249	0xbfa13608660e16b0	-0.03361536260403619
250	0xbfe7a94b74bd1df1	-0.7394158630422095
251	0xbff8f9a2ff3e91ca	-1.5609464617237898
252	0xbfcca62e7c9eeafd	-0.22382145962713898
253	0xbfe55fcf4d4878e4	-0.6679455289302294
254	0xbff882fcf325d282	-1.5319795129736637
255	0xbfd858cf4222425e	-0.38042050798779836

tvecs f8 [98, 3, 1]
0	0xbfcb5a524d5f32ae	-0.21369389322207638
1	0x3fc0a416520e55ad	0.1300075436271703
2	0x3fe1a9b776421525	0.551967364285393
3	0xbfcb51d5e34c4766	-0.21343492125066205
4	0x3fc098d2fb9ee62c	0.12966382299582457
5	0x3fe19efe1fb5211c	0.5506582850730726
6	0xbfcb4ecc2527e707	-0.21334220709086812
7	0x3fc08e4741eb46c1	0.12934199064925703
8	0x3fe195cb71463878	0.5495354854954391
9	0xbfcb52ed3c52844f	-0.213468222097648
10	0x3fc083cb37b8c8a3	0.12902202816764427
11	0x3fe193ed451de28f	0.5493074750839514
12	0xbfcb5ee580311434	-0.21383351096497594
13	0x3fc07bf1c45c75cf	0.12878248298595316
14	0x3fe194adc4718e2c	0.5493992649830424
15	0xbfcb6f6ef6d59cd0	-0.21433817913496123
16	0x3fc075b47d7bf828	0.128592072745904
17	0x3fe19b3987a9f465	0.5501983308491957
18	0xbfcb805900fba8a7	-0.2148543600845347
19	0x3fc06e9a19a0170a	0.128375303757075
20	0x3fe1a53692b0b1c1	0.5514176240008554
21	0xbfcb9308a8bc20db	-0.21542461623199113
22	0x3fc06c16e852a6fe	0.12829862922563245
23	0x3fe1b11f20823fc9	0.5528712878167364
24	0xbfcb9d8c6dd7e126	-0.21574550021592492
25	0x3fc07315c4a84b54	0.12851211645519334
26	0x3fe1c00894d2e766	0.5546915919032755
27	0xbfcba94e15ca7abc	-0.21610427917490493
28	0x3fc078fe0455e0ea	0.12869239055340326
29	0x3fe1cf37040288fd	0.5565447882002271
30	0xbfcbb02221db5717	-0.2163126626316447
31	0x3fc0812c26308113	0.12894203057022277
32	0x3fe1dd566ed48b3a	0.558268753495532
33	0xbfcbb236ce35e077	-0.21637616223211228
34	0x3fc08683da50ad4f	0.12910507354659237
35	0x3fe1e7c57bddbc24	0.5595424098263533
36	0xbfcbb2e9de7c8d98	-0.21639750827408188
37	0x3fc08ddd65e6b0fa	0.1293293712200308
38	0x3fe1f06ff15ce25e	0.5606002534978634
39	0xbfcbae96c9f08837	-0.2162655340226267
40	0x3fc09754ac821e84	0.12961824820762413
41	0x3fe1f36c098fa4e9	0.5609646021595412
42	0xbfcba9eab20c5fd2	-0.21612294858709774
43	0x3fc09ea27af75cbf	0.12984114650928366
44	0x3fe1f2340aed89ac	0.5608158315119929
45	0xbfcba2ec2ef02a99	-0.21590950290586333
46	0x3fc09fc94304b505	0.12987628719694314
47	0x3fe1eadc6a0c866c	0.5599195548313225
48	0xbfcb9776f393517c	-0.21555983441670523
49	0x3fc0a7aec16f6442	0.13011726803850548
50	0x3fe1e2e2e038b049	0.5589460734677313
51	0xbfcb8a96a31be1a5	-0.21516688312818846
52	0x3fc0a7e611f9cdae	0.13012386205410337
53	0x3fe1d44045bfdec7	0.5571595537466799
54	0xbfcb787f83fbeb5f	-0.21461481041464034
55	0x3fc0a6fd01e0a6fa	0.1300960787933077
56	0x3fe1c4f704390663	0.5552935678935679
57	0xbfcb6785b7484681	-0.21409675072986903
58	0x3fc0a29bfe0cd9a3	0.12996244339747162
59	0x3fe1b61939a2e68f	0.5534788251599866
60	0xbfcaa3a192f33c1b	-0.20811862635898212
61	0x3fc0be523c2138c9	0.13080814300560054
62	0x3fe10f6de5116470	0.5331334566100292
63	0xbfca85b589c0b078	-0.2072054789181299
64	0x3fc09d2789bf4366	0.1297959730714197
65	0x3fe0f36901dbb27f	0.5297131573002644
66	0xbfca860db7d1265a	-0.20721599078597103
67	0x3fc0786db45de5f3	0.12867518717739265
68	0x3fe0e372e47eb0b6	0.5277647459784223
69	0xbfcaab119d110324	-0.2083456055570646
70	0x3fc05130bd676b03	0.127477734072123
71	0x3fe0dfef5cec1663	0.5273358168494265
72	0xbfcae86b06a6bbc4	-0.21021783661623605
73	0x3fc02d6099c85acf	0.12638480671804195
74	0x3fe0e934ee2ca6db	0.5284676219791565
75	0xbfcb318995e1e8a6	-0.21244926279525095
76	0x3fc01688cf492479	0.12568769570706076
77	0x3fe0ffde6c2315e3	0.5312339889575778
78	0xbfcb71ef5ce9931f	-0.21441452061403596
79	0x3fc00f30c97c396d	0.1254635795416549
80	0x3fe12222fbf9d1ed	0.5354170724299913
81	0xbfcba316b8308449	-0.21591457360867342
82	0x3fc021ab2e970af9	0.12602748656180277
83	0x3fe14d1eaf0ca979	0.5406640452322754
84	0xbfcbbb247302ca89	-0.21664863219992395
85	0x3fc03bdccd29d643	0.12682685868974106
86	0x3fe17b0d88eff9c2	0.5462711023863493
87	0xbfcbc27692530b3b	-0.21687204499002086
88	0x3fc05bfb348b13f7	0.12780704560842057
89	0x3fe1a8a71161b387	0.5518374766812578
90	0xbfcbbc2fd8d8f4a8	-0.21668050850158704
91	0x3fc0772c5a0bd0d5	0.12863687893662382
92	0x3fe1cf308abd115d	0.5565417012917738
93	0xbfcbb00060e23df3	-0.21630863886501536
94	0x3fc08f098f4c5ec3	0.12936515328396156
95	0x3fe1ec0f4fd3bd84	0.5600658949969533
96	0xbfcbabbadeeedd25	-0.21617828259852803
97	0x3fc09d76e2cfd529	0.12980543207928832
98	0x3fe1fcd87a0d7cd4	0.5621149429170154
99	0xbfcbac40ff8cd8c6	-0.2161942718318583
100	0x3fc0a6d2f2c14603	0.1300910649611496
101	0x3fe1fe42b4dd7009	0.5622876675147391
102	0xbfcbaad307a7f71f	-0.21615064500650136
103	0x3fc0ad2f9063c963	0.13028521108897015
104	0x3fe1f173698677a2	0.5607239781418125
105	0xbfcba184a9f2be7d	-0.2158666448426522
106	0x3fc0b8853ecd55bd	0.1306311184550121
107	0x3fe1d7685c158d5c	0.5575448797721196
108	0xbfcb8880566cc578	-0.21510318965878716
109	0x3fc0c3e10559000b	0.13097775231472072
110	0x3fe1b39670271c53	0.5531723204120546
111	0xbfcb5a18d1a57aaa	-0.2136870406784131
112	0x3fc0cb26e025f422	0.13119970268954356
113	0x3fe187f69148c24c	0.5478470647413558
114	0xbfcb1eefa2e19bc2	-0.21188159421146052
115	0x3fc0d11ada7f849e	0.1313813750157679
116	0x3fe15cad82bf34df	0.5425632051134491
117	0xbfcade9731c3dc6d	-0.2099179261201444
118	0x3fc0ce9e32867f64	0.13130547968921313
119	0x3fe13569c4da177a	0.5377701611293866
120	0xbfc9e03cb8cc6120	-0.20215567611081386
121	0x3fc0f98382bcd0eb	0.13261455424947796
122	0x3fe0472cb25694d5	0.5086883052032599
123	0xbfc9761ce8827590	-0.19891702034958003
124	0x3fc0c5fb8835feb9	0.13104194785045367
125	0x3fe010e57317d55f	0.5020625350868321
126	0xbfc94d076b5fce6c	-0.1976632379806803
127	0x3fc08035d0b4d7ef	0.12891266527884634
128	0x3fdfd5e2c5a5a953	0.4974295549533469
129	0xbfc97cd7018b3e86	-0.1991223104036985
130	0x3fc02c4d8fcc72b8	0.12635201951424846
131	0x3fdfb819be9b4faa	0.4956116067307855
132	0xbfc9e87bfe6391cf	-0.2024073593266977
133	0x3fbfcc839f0931f3	0.12421438820565082
134	0x3fdfbe3cc0272c52	0.4959861637586914
135	0xbfca79edd97d2799	-0.20684598083090291
136	0x3fbf6a51d2dba59d	0.12271605871105469
137	0x3fdff5ac4505fff9	0.4993696855599406
138	0xbfcb0a20217d7fb1	-0.21124650607361908
139	0x3fbf342803d33189	0.12188959210761231
140	0x3fe02920c2c15096	0.5050205043612717
141	0xbfcb763d77605d24	-0.21454590157439057
142	0x3fbf4b029c1cd04c	0.12223831473676333
143	0x3fe068204d731c05	0.5127107155502705
144	0xbfcbab889d596598	-0.21617229159418794
145	0x3fbfbb6477d18a19	0.12395313191658665
146	0x3fe0b2f2e6bd9c3d	0.521844340005266
147	0xbfcbab111f6f3b89	-0.21615804705512812
148	0x3fc01cfa8c95d771	0.12588435997502814
149	0x3fe0fef6a0802256	0.5311234602714403
150	0xbfcb855d351ec485	-0.2150074490905675
151	0x3fc05e0ae7dce9ff	0.1278699524062432
152	0x3fe147f960f950fd	0.5400359052678422
153	0xbfcb5577feedb601	-0.21354579875644222
154	0x3fc087595ef7c519	0.12913052689649687
155	0x3fe1810e4ae79326	0.5470038855533843
156	0xbfcb3c1e6dad3074	-0.2127721820382963
157	0x3fc09c41d9eb2d49	0.12976859226760443
158	0x3fe1a68240c88db7	0.5515757813740753
159	0xbfcb4338cb104ab3	-0.21298894801346577
160	0x3fc09beb379ff89b	0.129758264694776
161	0x3fe1b4c9d4720e75	0.5533188962294405
162	0xbfcb61fc5e44896e	-0.21392778971592058
163	0x3fc099e2a672bb1a	0.1296962082610314
164	0x3fe1ab70d049384b	0.5521778171621546
165	0xbfcb7f66bd73a933	-0.2148254799897785
166	0x3fc09ec1a95f9da3	0.12984486360731493
167	0x3fe18930c1ed5d9b	0.5479968822136699
168	0xbfcb814b8834d7e0	-0.21488327170089772
169	0x3fc0b0647e0c2638	0.1303830733743767
170	0x3fe153b6a90e1263	0.5414689351897092
171	0xbfcb57b5fb36d404	-0.2136142231589987
172	0x3fc0cb103f2c5ced	0.13119700512536472
173	0x3fe1132a41f469a0	0.5335894859484149
174	0xbfcaf8dd3cc0ea3f	-0.21071973291857835
175	0x3fc0eb8847113301	0.13218787641599053
176	0x3fe0cb667c1901b0	0.5248291419775821
177	0xbfca6fee84f13a46	-0.20654088488886851
178	0x3fc1008ccb3e0c34	0.13282928394264248
179	0x3fe084dce33a28ec	0.5162186086684222
180	0xbfc851f629cd3f96	-0.1900012687788119
181	0x3fc107afcbeba036	0.1330470796303886
182	0x3fdde36b9218382f	0.46700562731791967
183	0xbfc7c72e3bb2ac55	-0.1857660094732149
184	0x3fc0a2aec3e19cb3	0.1299646812869689
185	0x3fdd6a0c76edf5cb	0.45959769834720693
186	0xbfc7d50649c462ea	-0.18618849374686103
187	0x3fc01ee4001ce205	0.12594270711430525
188	0x3fdd25749bbdab79	0.4554111023814396
189	0xbfc86149d2ff0c43	-0.19046900560906196
190	0x3fbf43132bceb26a	0.12211723155514567
191	0x3fdd144ce24ca692	0.4543640336947671
192	0xbfc942d3cb1181c5	-0.19735190787743143
193	0x3fbe8534e12b5a65	0.11922007081316506
194	0x3fdd3dbce1fccd33	0.4568931776913871
195	0xbfca36a8e8896440	-0.20479308466272705
196	0x3fbe10ca70b9ec8d	0.11744370700937364
197	0x3fdd9e740dcf9bf3	0.46279622410514704
198	0xbfcb029be510ff1c	-0.21101711926348166
199	0x3fbe0ab2d668a1e0	0.1173507474383153
200	0x3fde344f5fb90f20	0.47194275234163463
201	0xbfcb78042be06f6d	-0.2146001066438389
202	0x3fbe89244b1f08d0	0.11928011735929833
203	0x3fdef337ada85e8b	0.48359481772192997
204	0xbfcb89b3bb11f689	-0.21513983377728987
205	0x3fbf6cb538277f14	0.12275250073389216
206	0x3fdfc8461f129d80	0.49659874948925875
207	0xbfcb3acbc6913830	-0.2127318114821164
208	0x3fc02fdfdaee0eef	0.12646101179063104
209	0x3fe04de8c764d7f4	0.5095104116833213
210	0xbfcac7d24f79a7cc	-0.20922306900621235
211	0x3fc0863c74afe328	0.12909656236276956
212	0x3fe0aa1d195d766e	0.5207658286487467
213	0xbfca717de2e41b20	-0.2065884931436921
214	0x3fc0a4476634ae1b	0.13001339426533395
215	0x3fe0ee9a5b35cf3d	0.5291263371895877
216	0xbfca6503ebeb507d	-0.20620774287693058
217	0x3fc096ee47786be3	0.1296060418106598
218	0x3fe11289377449e2	0.533512695607268
219	0xbfcaa36864136080	-0.20811180960186348
220	0x3fc07982936c4781	0.12870819280993476
221	0x3fe113b2568efdb2	0.5336543741795394
222	0xbfcb01f08d24fdb9	-0.21099669353314512
223	0x3fc0695737c73b4b	0.1282147428850869
224	0x3fe0f404d8c033cc	0.5297874673284411
225	0xbfcb4a9fa9be8642	-0.21321483410160808
226	0x3fc0711ec0e0da74	0.12845215242278452
227	0x3fe0b5925aeab2b6	0.5221645141333144
228	0xbfcb54a4beadfd0f	-0.21352061567811417
229	0x3fc09923665c8227	0.1296734094439824
230	0x3fe062439861ce9f	0.5119951225483027
231	0xbfcafd69efaaf821	-0.21085857584506676
232	0x3fc0d8544c891665	0.13160184609494077
233	0x3fe002c85b1f1eb3	0.5003396777837764
234	0xbfca3f2c5a189483	-0.20505289458484208
235	0x3fc1174c6f8ec778	0.13352351615099756
236	0x3fdf3cab81858335	0.48807799957835424
237	0xbfc942449f19ceb2	-0.19733484047502753
238	0x3fc133c13eff6c28	0.1343919332128689
239	0x3fde850b799e1614	0.47687041165076605
240	0xbfc76afc5378690c	-0.18295244289112877
241	0x3fc15ee6680b33c8	0.13570861892949737
242	0x3fdb4a27b2b609f0	0.4264010663247566
243	0xbfc62f430bf2ca53	-0.1733173187581821
244	0x3fc0e702fb94cc51	0.1320499161170994
245	0x3fda9c83990179ee	0.4158028597065869
246	0xbfc5cb7628eaf0bc	-0.17027165410934753
247	0x3fc02dcb11a7c689	0.1263974987228276
248	0x3fda1c7e7142bb02	0.40798913059818187
249	0xbfc64ee2a31dd6a9	-0.17428238835025425
250	0x3fbeff8b5e2d6529	0.12108679818392844
251	0x3fd9e5075fe2cb27	0.4046038090120185
252	0xbfc7759739f6e398	-0.1832760842351291
253	0x3fbd99361d49b650	0.11561907019650985
254	0x3fd9f24fc30e92a3	0.4054145245411666
255	0xbfc8d57efc736637	-0.19401538206766286

square_size f8 []
0	0x3f989374bc6a7efa	0.024

per_view_errors f8 [98]
0	0x3fbdbb8ea0000000	0.11614314466714859
1	0x3fc0ba5bc0000000	0.13068720698356628
2	0x3fbfd86e60000000	0.12439622730016708
3	0x3fc1fdcfe0000000	0.14055822789669037
4	0x3fbeb42460000000	0.1199362501502037
5	0x3fc0d5fae0000000	0.13153015077114105
6	0x3fc0513740000000	0.12747851014137268
7	0x3fbbe70780000000	0.10899397730827332
8	0x3fbf85ca00000000	0.12313520908355713
9	0x3fbf50a1a0000000	0.12232408672571182
10	0x3fc0eb5720000000	0.1321820169687271
11	0x3fc0df9ba0000000	0.13182397186756134
12	0x3fbf434120000000	0.1221199706196785
13	0x3fbf299280000000	0.1217280924320221
14	0x3fbf472500000000	0.12217932939529419
15	0x3fc03e9cc0000000	0.12691077589988708
16	0x3fc037bd80000000	0.12670105695724487
17	0x3fbe347040000000	0.11798764765262604
18	0x3fc1099480000000	0.1331048607826233
19	0x3fc032b720000000	0.126547709107399
20	0x3fc00c2340000000	0.12537041306495667
21	0x3fc0dc38a0000000	0.1317206174135208
22	0x3fc19ffda0000000	0.13769502937793732
23	0x3fc174fba0000000	0.13638253509998322
24	0x3fc1aae6a0000000	0.13802798092365265
25	0x3fbed28f20000000	0.12040037661790848
26	0x3fbfd37840000000	0.12432052195072174
27	0x3fc0e0d020000000	0.13186074793338776
28	0x3fbffe6a40000000	0.12497581541538239
29	0x3fbfc5e920000000	0.12411362677812576
30	0x3fc0812e60000000	0.12894229590892792
31	0x3fc0dbe420000000	0.13171054422855377
32	0x3fc02a4100000000	0.1262894868850708
33	0x3fc1012cc0000000	0.1328483521938324
34	0x3fc1fa6640000000	0.14045408368110657
35	0x3fc1f97c20000000	0.1404261738061905
36	0x3fc1f48b80000000	0.14027541875839233
37	0x3fc074dfe0000000	0.12856672704219818
38	0x3fc1a05c00000000	0.13770627975463867
39	0x3fc1ec4640000000	0.14002302289009094
40	0x3fc2f6e040000000	0.14815905690193176
41	0x3fc31ca000000000	0.14931106567382812
42	0x3fc26428c0000000	0.1436816155910492
43	0x3fc2c8d520000000	0.1467539221048355
44	0x3fc3055d20000000	0.14860118925571442
45	0x3fc3e6cf80000000	0.1554812788963318
46	0x3fc45d2d80000000	0.15909355878829956
47	0x3fc35096a0000000	0.1508968621492386
48	0x3fc064ae60000000	0.12807254493236542
49	0x3fbf876780000000	0.12315985560417175
50	0x3fc0f49080000000	0.1324635148048401
51	0x3fc2c3d780000000	0.1466016173362732
52	0x3fc3608660000000	0.1513832062482834
53	0x3fc4a14c20000000	0.16117240488529205
54	0x3fc54df380000000	0.16644138097763062
55	0x3fc4cb4e00000000	0.16245436668395996
56	0x3fc39c3920000000	0.1532050520181656
57	0x3fc2963560000000	0.14520899951457977
58	0x3fc3ce6c00000000	0.15473699569702148
59	0x3fc321d860000000	0.14947037398815155
60	0x3fc49bdca0000000	0.16100652515888214
61	0x3fc5f7b060000000	0.17162136733531952
62	0x3fc61ac6c0000000	0.17269214987754822
63	0x3fc6e95d60000000	0.1789967268705368
64	0x3fc6532a60000000	0.17441301047801971
65	0x3fc67c6500000000	0.17567121982574463
66	0x3fc5c476c0000000	0.17005810141563416
67	0x3fc44f75e0000000	0.1586749404668808
68	0x3fc52e3ba0000000	0.16547341644763947
69	0x3fc47155c0000000	0.15970870852470398
70	0x3fc50cc900000000	0.1644526720046997
71	0x3fc5297160000000	0.16532723605632782
72	0x3fc4f1e600000000	0.16363215446472168
73	0x3fc866d540000000	0.1906382143497467
74	0x3fc7782b00000000	0.18335473537445068
75	0x3fc81af8a0000000	0.18832309544086456
76	0x3fc6c68880000000	0.17793375253677368
77	0x3fc56ffd80000000	0.16748017072677612
78	0x3fc7572680000000	0.1823471188545227
79	0x3fc4e821c0000000	0.16333410143852234
80	0x3fc7ea9740000000	0.18684664368629456
81	0x3fc8ab9ba0000000	0.19273705780506134
82	0x3fc8b33d60000000	0.19296996295452118
83	0x3fc8e6d260000000	0.19454412162303925
84	0x3fcc13fa40000000	0.21935966610908508
85	0x3fcb313660000000	0.21243934333324432
86	0x3fcd21c7c0000000	0.22759339213371277
87	0x3fccb3d360000000	0.2242378443479538
88	0x3fccdc46c0000000	0.22547230124473572
89	0x3fcc373aa0000000	0.22043545544147491
90	0x3fcc60c220000000	0.22170282900333405
91	0x3fcc30ce80000000	0.22023946046829224
92	0x3fce5ff840000000	0.23730376362800598
93	0x3fce52ba00000000	0.23689961433410645
94	0x3fcc3e0620000000	0.2206428200006485
95	0x3fcc80d860000000	0.22268204391002655
96	0x3fcbf96360000000	0.2185482233762741
97	0x3fc968cfa0000000	0.19851107895374298
